checkpoints/model_checkpoint.pth (torch, 341006 bytes, 13 tensors)

lstm.weight_ih_l0 f4 [256, 2]
0	0xbd159360	-0.0365175
1	0x3db0d08c	0.08633527
2	0xbdca94b8	-0.09891647
3	0x3df53460	0.1197288
4	0x3de70f74	0.11282244
5	0xbdac9bba	-0.0842814
6	0x3c7b91c0	0.015354574
7	0xbda54b68	-0.08071023
8	0x3d61d904	0.055138603
9	0xbd626634	-0.05527325
10	0x3dc927ea	0.09822066
11	0xbdf3322a	-0.118748024
12	0xbd804ade	-0.0626428
13	0x3c84fc38	0.016233549
14	0xbdc6d4de	-0.0970857
15	0x3de1b872	0.11021508
16	0xbd8296b2	-0.06376399
17	0xbcefff00	-0.029296398
18	0xbdb8ee48	-0.090298235
19	0xbdc427c2	-0.09577896
20	0xbd2b2ca8	-0.041790634
21	0x3dd4ee32	0.10396995
22	0x3ce4f2b0	0.027947754
23	0xbd585058	-0.052810997
24	0xbd6f3b90	-0.058406413
25	0xbc1ea3e0	-0.0096826255
26	0x3d32f478	0.043690175
27	0xbd4663d8	-0.048435062
28	0x3d0e685c	0.034767494
29	0x3ceabda0	0.028654873
30	0xbd6912b4	-0.056902602
31	0xbdb10224	-0.086429864
32	0x3d049160	0.032365203
33	0x3d06af00	0.032881737
34	0x3debbb7e	0.11510371
35	0xbd0c7874	-0.03429456
36	0x3d04cee0	0.032423854
37	0xbc42c710	-0.0118882805
38	0x3dde2b84	0.10848144
39	0xbb563131	-0.003268313
40	0xbd81ef30	-0.063444495
41	0x3decb63c	0.11558196
42	0x3d977724	0.07395771
43	0xbd236954	-0.03989537
44	0x3d39d448	0.045368463
45	0xbd93e0ba	-0.072205976
46	0x3dfb3b2e	0.12267147
47	0x3ce4c210	0.027924567
48	0x3d8e4428	0.069465935
49	0x3d58671c	0.052832708
50	0x3dbe4b36	0.09291689
51	0xbd3fd1d8	-0.046830982
52	0xbdf2b2e0	-0.11850524
53	0x3d85942a	0.06522401
54	0xbdde0928	-0.1084159
55	0x3d91ce58	0.07119435
56	0x3ddb481a	0.10707112
57	0xbdab3026	-0.08358793
58	0x3d3df4f4	0.046376184
59	0x3de31b0c	0.11089143
60	0x3d3123c4	0.043247
61	0xbdc639f0	-0.096790195
62	0xbd4fc888	-0.05072835
63	0xbd9e093e	-0.077166066
64	0xbd6e1cd8	-0.058132976
65	0x3d5565dc	0.052099094
66	0x3d81128c	0.06302366
67	0xbd5d0e2c	-0.053968593
68	0x3dddd440	0.10831499
69	0xbde17d98	-0.11010283
70	0x3c4ea2e0	0.012612075
71	0x3dbcc128	0.09216529
72	0x3d9af1a2	0.07565619
73	0x3dcf4f54	0.101225525
74	0xbd315760	-0.043296218
75	0x3d828e4e	0.06374799
76	0x3c89ba10	0.016812354
77	0xbd8df64c	-0.06931743
78	0xbd7ad868	-0.061241537
79	0xbdb7d2c4	-0.08975747
80	0xbdca02d2	-0.09863819
81	0xbdebeed8	-0.11520165
82	0x3d014d10	0.031567633
83	0x3d359a7c	0.04433678
84	0x3cc2ebd8	0.0237941
85	0x3deb5cda	0.114923194
86	0xbded9f72	-0.116026774
87	0xbdb8bcec	-0.09020409
88	0xbdb399be	-0.08769558
89	0x3d9822ac	0.07428488
90	0xbdf44606	-0.119274184
91	0xbd830a7a	-0.063984826
92	0x3d8e65d8	0.06953019
93	0x3cf45948	0.029827729
94	0xbd93779e	-0.072005495
95	0x3d6b87bc	0.057502493
96	0xbdc552b8	-0.09634918
97	0xbd6841d0	-0.05670339
98	0xbde44c26	-0.11147337
99	0xbdfe269a	-0.124097064
100	0xbd28c7f0	-0.0412063
101	0x3cffba98	0.031216905
102	0x3d693648	0.056936532
103	0xbd3416e8	-0.043967158
104	0x3dee0e5a	0.11623831
105	0xbc114c30	-0.008868262
106	0x3c0bc2b0	0.008530304
107	0x3df23754	0.11826959
108	0xbdb9cc98	-0.09072226
109	0xbd92d580	-0.07169628
110	0x3debeefa	0.115201905
111	0x3cd59368	0.026071265
112	0x3db2e3b6	0.08734839
113	0xbdaa8c68	-0.083275616
114	0xbd83b3e2	-0.06430794
115	0x3d5670ac	0.052353546
116	0x3cfe90c0	0.031074882
117	0x3de11e94	0.109921604
118	0x3d6e6c44	0.05820872
119	0x3d891344	0.06693128
120	0x3d973298	0.07382697
121	0xbdbb003e	-0.091309056
122	0xbd0bb8fc	-0.03411196
123	0xbdaa8fba	-0.08328195
124	0x3db3b48e	0.087746724
125	0xbd40afcc	-0.047042653
126	0x3dd23d64	0.102656156
127	0x3c269a10	0.010168567
128	0x3d664134	0.056214526
129	0xbdde8d4a	-0.108667925
130	0x3c837db0	0.016051143
131	0xbd2a8000	-0.041625977
132	0x3dc5a992	0.096514836
133	0xbbcd2400	-0.006260395
134	0x3dc3945c	0.09549782
135	0xbd89f1de	-0.06735586
136	0xbdce273c	-0.10066077
137	0x3b3374c0	0.002738282
138	0x3d270e28	0.040784985
139	0x3d31b248	0.043382913
140	0x3df8f304	0.121557266
141	0xbdfe2ff8	-0.12411493
142	0x3d511b68	0.051051527
143	0x3db2195c	0.08696243
144	0xbc6e65e0	-0.014550656
145	0xbd9dc022	-0.07702662
146	0xbd3e2258	-0.04641947
147	0x3c4ed380	0.012623668
148	0x3d324f5c	0.043532714
149	0xbcf24ab0	-0.02957663
150	0xbdd19eb0	-0.10235345
151	0x3d51ad14	0.05119045
152	0x3db6fd42	0.08935024
153	0xbde149f4	-0.110004336
154	0x3dec6782	0.1154318
155	0xbca41bb8	-0.020032749
156	0x3da9a32e	0.08283077
157	0xbdf946ee	-0.12171732
158	0x3ddf43f0	0.1090163
159	0x3d1146b4	0.03546782
160	0x3d0115d0	0.031514943
161	0x3da09b18	0.07842082
162	0x3d93f560	0.07224536
163	0x3d9cf1e8	0.076633275
164	0xbc87c000	-0.016571045
165	0xbc55a520	-0.013039857
166	0x3bb4fae0	0.0055230707
167	0x3d1f9dac	0.038968727
168	0xbdc67668	-0.09690553
169	0xbdfca544	-0.123362094
170	0xbd0b6b94	-0.03403814
171	0x3c92d7f0	0.017925233
172	0xbd363454	-0.044483498
173	0x3d679834	0.056541637
174	0x3d229ba4	0.03969921
175	0xbc19d520	-0.009389192
176	0x3b946e00	0.0045297146
177	0x3df3ac6c	0.11898121
178	0x3d87f264	0.06638029
179	0x3d9cf71e	0.07664321
180	0xbd0ff960	-0.035149932
181	0x3c984508	0.018587604
182	0xbd771050	-0.06031829
183	0xbdbf90f6	-0.09353821
184	0xbd4d6184	-0.050141826
185	0xbb0e02c0	-0.002166912
186	0xb71ac000	-9.223819e-06
187	0x3dd9e8d4	0.106401116
188	0xbd98d7b8	-0.0746302
189	0x3da70362	0.08154942
190	0x3deda37e	0.11603449
191	0x3da93df0	0.08263767
192	0x3d240254	0.040041283
193	0x3dc5a712	0.09651007
194	0xbdfe38ba	-0.124131635
195	0x3c4919b0	0.012274191
196	0x3d1f9904	0.038964286
197	0x3dd53d76	0.10412113
198	0xbd9baec8	-0.07601696
199	0x3df1dd74	0.11809817
200	0x3dd27f00	0.102781296
201	0xbc36c140	-0.011154473
202	0x3cc3b628	0.02389057
203	0xbdd3d960	-0.10344195
204	0xbd4663c0	-0.048434973
205	0x3d18ac28	0.037273556
206	0x3da3ba66	0.07994537
207	0xbdef8c58	-0.1169669
208	0x3d80b4ba	0.06284471
209	0x3df84440	0.12122393
210	0xbca8f0a0	-0.020622551
211	0x3d5fd754	0.054648712
212	0xbca58848	-0.020206586
213	0xbde5e1f4	-0.11224738
214	0xbd48a3d4	-0.048984364
215	0xbd247348	-0.040149003
216	0xbd836324	-0.06415394
217	0xbd9987b0	-0.074965835
218	0xbd5aea90	-0.053446352
219	0x3c73b770	0.014875278
220	0x3d9776a0	0.07395673
221	0xbd957b12	-0.072988644
222	0xbdba6db4	-0.091029555
223	0x3dd8d6d6	0.10587852
224	0xbcfafd20	-0.030638278
225	0x3d1436e8	0.036185175
226	0x3d7108f4	0.05884643
227	0xbdb08878	-0.08619779
228	0xbcab2938	-0.020893678
229	0x3d8d0732	0.06886138
230	0x3c035290	0.00801529
231	0xbd7ab70c	-0.061209723
232	0xbdb0f900	-0.08641243
233	0xbdcd4cd2	-0.10024418
234	0x3dd7a292	0.10529055
235	0x3bc808a0	0.006104544
236	0x3dd27186	0.10275559
237	0xbde10b8a	-0.10988529
238	0x3daaedfe	0.08346175
239	0xbcc4ce68	-0.024024203
240	0x3dceb0ba	0.10092302
241	0xbcd086e8	-0.025454953
242	0x3d6b77f4	0.057487443
243	0xbaa6b400	-0.0012718439
244	0x3cc14770	0.023593634
245	0x3d463170	0.04838699
246	0xbd1dd210	-0.03853041
247	0xbda1d2be	-0.07901524
248	0xbda77cac	-0.08178076
249	0x3dd5af46	0.104338214
250	0xbbab2b20	-0.0052236468
251	0xbd82d972	-0.06389131
252	0x3c92afc0	0.01790607
253	0x3dc53e9e	0.09631084
254	0xbde4271e	-0.111402735
255	0xbce440c0	-0.027862906

lstm.weight_hh_l0 f4 [256, 64]
0	0xbda840d6	-0.082154915
1	0xbdae5926	-0.085130975
2	0xbc38ab60	-0.011271328
3	0xbbe74700	-0.0070580244
4	0x3dbde220	0.092716455
5	0xbc8b9fd0	-0.017043978
6	0xbcddd528	-0.02707918
7	0x3d2b2354	0.04178174
8	0xbdc8f1ca	-0.098117426
9	0xbd846496	-0.06464498
10	0xbde1e42e	-0.1102985
11	0xbceaf3d8	-0.028680727
12	0xbd2d4e20	-0.042310834
13	0x3cece230	0.028916448
14	0x3c504790	0.012712374
15	0xbd7cd654	-0.061727837
16	0xbdbe8f96	-0.093047306
17	0x3d913f86	0.07092194
18	0xbd83d5fe	-0.064373
19	0xbdc99fae	-0.098449096
20	0x3d2ce4a0	0.04221022
21	0xbd801fec	-0.062560886
22	0xbdd73490	-0.105080724
23	0xbd0cf73c	-0.03441547
24	0x3da4e7ba	0.08052011
25	0xbdd7739e	-0.10520099
26	0x3d6c6e88	0.0577226
27	0xbd1b4b64	-0.037913695
28	0xbdefd444	-0.11710408
29	0x3db78930	0.08961713
30	0x3dd2ce08	0.102932036
31	0x3d56f7dc	0.05248247
32	0x3d893d9e	0.06701206
33	0xbbe2d960	-0.006922886
34	0x3daee90a	0.085405424
35	0x3db7a5a6	0.08967142
36	0x3ddb9b5c	0.10722992
37	0xbda1f2e6	-0.07907657
38	0x3d1e68e4	0.03867425
39	0xbd0e489c	-0.034737214
40	0xbbd2b580	-0.006430328
41	0xbd53be80	-0.051695347
42	0xbdbd2858	-0.092362106
43	0x3da8c38c	0.082404226
44	0xbddc5fec	-0.10760483
45	0xbc4d6cc0	-0.012538135
46	0xbdba7488	-0.09104258
47	0x3de2fb7c	0.11083123
48	0x3d47b7c8	0.04875925
49	0xbdc7547c	-0.09732911
50	0x3d1900a8	0.03735414
51	0xbd0fff34	-0.03515549
52	0xbaf4eb80	-0.0018685907
53	0xbdaed0e4	-0.085359365
54	0xbdfccdee	-0.123439655
55	0xbd187e18	-0.037229627
56	0x3ddacafe	0.10683249
57	0xbd797290	-0.06090027
58	0x3dd87924	0.10569981
59	0xbcdfd6a0	-0.02732402
60	0x3bbcb6c0	0.00575909
61	0x3dd1cda4	0.10244301
62	0x3cd9afb8	0.026573047
63	0xbda5ff78	-0.081053674
64	0xbd754854	-0.05988343
65	0x3d8e770e	0.06956302
66	0xbc45cda0	-0.012072951
67	0x3d089f20	0.03335488
68	0x3d3b1a80	0.04567957
69	0xbdb89586	-0.09012894
70	0x3da2d20e	0.07950221
71	0xbd37e4e4	-0.04489602
72	0x3c8313f8	0.016000733
73	0xbd648c20	-0.055797696
74	0x3d9e6242	0.07733585
75	0xbdd9a79c	-0.10627672
76	0xbd26f23c	-0.040758356
77	0x3d09dc8c	0.033657596
78	0xbc89e150	-0.01683107
79	0x3df58dc4	0.1198993
80	0x3dcef718	0.10105723
81	0x3ce883c0	0.028383136
82	0x3d8a46f0	0.067518115
83	0x3dd060c6	0.10174708
84	0x3c23a320	0.0099876225
85	0xbd60e4c8	-0.054905683
86	0x3d6a46dc	0.057196483
87	0x3dbec3d6	0.093146965
88	0x3c188b60	0.009310573
89	0xbbd929a0	-0.0066272765
90	0x3dca399e	0.09874271
91	0xbda776f8	-0.08176988
92	0x3d457b00	0.048213005
93	0x3d062008	0.03274539
94	0xbddf5556	-0.109049484
95	0x3bc3f120	0.005979672
96	0xbda009a2	-0.07814337
97	0x3cb7a080	0.0224154
98	0x3d12c244	0.035829797
99	0x3c34a350	0.011025265
100	0x3cb7ee50	0.022452503
101	0xbda9f884	-0.08299354
102	0xbd3f06ac	-0.046637222
103	0x3ce3e650	0.027819782
104	0x3dc1d032	0.09463538
105	0xbdcb43ca	-0.09925039
106	0xbd99090e	-0.0747243
107	0x3cfff5e0	0.031245172
108	0x3cef16b8	0.029185638
109	0x3ca2b998	0.019863889
110	0x3db74fa2	0.08950736
111	0x3d6063e8	0.054782778
112	0xbdc7a136	-0.097475454
113	0x3da565a8	0.0807603
114	0xbdca3fa0	-0.09875417
115	0x3d57b534	0.052663043
116	0xbd961610	-0.07328427
117	0x3d322964	0.043496504
118	0xbd191b80	-0.03737974
119	0x3d4a5fcc	0.049407765
120	0xbcd917c0	-0.026500583
121	0x3cc94580	0.024569273
122	0xbd38e208	-0.045137435
123	0xbdb7b080	-0.089692116
124	0x3d8246c4	0.06361154
125	0x3cf74458	0.030183956
126	0x3df0b0e0	0.11752486
127	0xbd474f78	-0.04865977
128	0x3d7307a0	0.059333444
129	0x3dc3254e	0.095286
130	0x3dbc2170	0.09186065
131	0xbca66150	-0.020310074
132	0x3b695dc0	0.0035608858
133	0x3dfe485e	0.12416147
134	0xbd747720	-0.05968392
135	0xbdad9e24	-0.084774286
136	0xbd0bd6e8	-0.034140497
137	0xbd4dca54	-0.050241783
138	0x3db67a4a	0.089100435
139	0x3dda5efa	0.106626466
140	0xbd5d7524	-0.054066792
141	0xbdb8f1b2	-0.09030475
142	0xbce16508	-0.027513996
143	0x3d8e378a	0.06944187
144	0x3d8cb386	0.06870179
145	0xbb94f2c0	-0.0045455396
146	0xbd513ad4	-0.051081493
147	0x3d1aea18	0.037820905
148	0x3ad53080	0.0016265064
149	0xbdc6594c	-0.09685001
150	0xbd95ff02	-0.073240295
151	0x3ddbdc54	0.10735384
152	0xbd0458c4	-0.032311216
153	0x3de2efe6	0.11080913
154	0xbd0bf170	-0.0341658
155	0xbdeec22c	-0.11658129
156	0xbdd0ba5c	-0.10191795
157	0x3dbc14f6	0.091836855
158	0x3de6c504	0.112680465
159	0x3d8bceb4	0.06826535
160	0x3d2e55c8	0.042562276
161	0x3d99e148	0.07513672
162	0x3d054a94	0.032541826
163	0x3ddcef12	0.107877865
164	0x3da536da	0.08067103
165	0x3d5baa9c	0.053629503
166	0xbce24678	-0.027621493
167	0xbd390c28	-0.04517761
168	0x3bda46e0	0.006661281
169	0xbde54798	-0.11195296
170	0xbd350864	-0.044197455
171	0x3dc79960	0.09746051
172	0x3ca20dd0	0.019781977
173	0x3dc4e604	0.096141845
174	0xbde53d14	-0.1119329
175	0xbd228e90	-0.03968674
176	0xbd3722e0	-0.044710994
177	0x3de4750e	0.11155139
178	0x3b045ec0	0.0020198077
179	0xbd4441d8	-0.047914356
180	0xbdeaae22	-0.114589944
181	0xbd5960e4	-0.053070918
182	0xbdd8a504	-0.10578349
183	0x3d948c50	0.07253325
184	0xbd91a29e	-0.07111095
185	0x3dcf771a	0.10130139
186	0x3c54b010	0.01298143
187	0x3c48dbf0	0.012259468
188	0xbc2aba10	-0.010420337
189	0x3dfcc568	0.1234234
190	0x3dec5bb2	0.11540927
191	0xbd96da94	-0.07365909
192	0x3bdcb4a0	0.0067353994
193	0x3d120368	0.03564778
194	0xbd8b030e	-0.06787692
195	0xbd55fd54	-0.052243546
196	0xbc9dfaa8	-0.019284561
197	0x3d0a8ad4	0.033823803
198	0x3dca6298	0.098820865
199	0x3cc08298	0.023499772
200	0x3db01af4	0.08598891
201	0x3b2fe700	0.0026840568
202	0x3d53c984	0.051705852
203	0xbdaba732	-0.08381499
204	0xbdc0c6b6	-0.09412901
205	0xbd6a9a64	-0.057276145
206	0x3c21de20	0.009879619
207	0xbdb0c3b4	-0.086310774
208	0xbd974778	-0.073866785
209	0xbdfbf440	-0.12302446
210	0x3dbb3426	0.09140806
211	0xbde9fb4c	-0.11424884
212	0x3d9c8b92	0.076438084
213	0x3da4d724	0.08048847
214	0xbccf1e20	-0.02528292
215	0x3d059e40	0.032621622
216	0xbdb26d66	-0.08712272
217	0x3db1c286	0.086796805
218	0xbdf769b4	-0.12080708
219	0xbc670180	-0.014099479
220	0xbd8da040	-0.06915331
221	0xbdc6175e	-0.09672426
222	0x3c88dbd8	0.016706392
223	0xbde638d0	-0.11241305
224	0x3b0b1f80	0.0021228492
225	0x3dc6670a	0.09687622
226	0xbd6293a0	-0.055316567
227	0x3d44abb0	0.048015296
228	0x3c81df88	0.015853658
229	0x3df240be	0.11828755
230	0xbd7a0268	-0.06103745
231	0xbccf71f8	-0.0253229
232	0x3debec28	0.115196526
233	0x3c5ecaa0	0.013598114
234	0xbdabca70	-0.08388221
235	0xbd122234	-0.03567715
236	0xbd748b50	-0.05970317
237	0xbcdc0710	-0.026858836
238	0x3dcb03ca	0.09912832
239	0x3dcfffd8	0.1015622
240	0x3d8a10ac	0.06741461
241	0x3d5b715c	0.053574905
242	0xbc8598b0	-0.016308159
243	0x3da425b0	0.08015001
244	0xbde222f8	-0.11041826
245	0xbd9c106e	-0.07620321
246	0x3dec4268	0.115361035
247	0x3d115564	0.035481825
248	0x3c51e760	0.012811512
249	0xbc94f908	-0.018185154
250	0xbdf6d70a	-0.12052734
251	0xbd865d1e	-0.065607294
252	0xbdc1fa1e	-0.09471534
253	0x3ce2fe80	0.027709246
254	0xbd98891e	-0.07448028
255	0xb998c800	-0.0002914071

lstm.bias_ih_l0 f4 [256]
0	0xbd8be2fa	-0.06830402
1	0x3d238b8c	0.039928004
2	0x3ca1fea8	0.01977475
3	0x3d3977d8	0.045280308
4	0xbde642b8	-0.11243194
5	0x3d5da98c	0.05411677
6	0x3cd4b730	0.025966257
7	0x3dcea732	0.10090484
8	0x3da274a2	0.07932402
9	0xbda7f29a	-0.082005695
10	0xbc96af10	-0.018394023
11	0xbcb2e578	-0.021837935
12	0xbdf2a31a	-0.118475154
13	0x3dbf6114	0.09344688
14	0xbd8d46a6	-0.06898241
15	0xbdbc1162	-0.09183003
16	0xbdeb003c	-0.11474654
17	0xbc5ad680	-0.013356805
18	0xbdc20196	-0.09472959
19	0xbd850e97	-0.064969234
20	0xbcdf6320	-0.027268946
21	0x3c9d1db0	0.019179195
22	0xbdc7b0ac	-0.09750494
23	0xbdbc86d4	-0.09205404
24	0x3d60fda8	0.054929405
25	0xbcdc1508	-0.026865497
26	0x3d4c81f0	0.049928606
27	0x3d8162a8	0.06317645
28	0xbde871e2	-0.113498464
29	0x3dc85730	0.09782255
30	0x3c712930	0.0147192925
31	0x3d16006c	0.036621496
32	0xbdc9c36a	-0.098517254
33	0xbd893c24	-0.06700924
34	0xbd64c6b8	-0.055853575
35	0x3c807060	0.015678585
36	0xbdd12416	-0.10211961
37	0xbd95df7a	-0.073180154
38	0xbdcba8de	-0.09944318
39	0x3cb063c8	0.021531954
40	0xbddc84d6	-0.10767524
41	0xbd5347e4	-0.051582232
42	0xbd526c78	-0.051372975
43	0x3d117090	0.03550774
44	0xbc742220	-0.014900714
45	0xbd432148	-0.04763916
46	0xbdfdc396	-0.12390821
47	0xbd9a287e	-0.075272545
48	0xbd3fee58	-0.04685816
49	0x3d0cd11c	0.03437911
50	0x3cc315b0	0.023814052
51	0x3cfd61c0	0.0309304
52	0x3dfa1568	0.12211114
53	0x3b477c00	0.00304389
54	0xbd638ce8	-0.0555543
55	0xbde3c03e	-0.11120652
56	0xbdd22a36	-0.10261957
57	0xbd9b5bbc	-0.07585856
58	0x3db6570a	0.0890332
59	0xbde5a5ea	-0.11213286
60	0x3d982434	0.0742878
61	0x3dd7585a	0.105148986
62	0x3dde1832	0.10844459
63	0xbdb87a98	-0.09007758
64	0xbca0bfa8	-0.019622639
65	0xbdc3a67a	-0.09553237
66	0xbdbe3a2a	-0.09288438
67	0xbd635268	-0.05549851
68	0xbcc66818	-0.024219558
69	0xbd5430ac	-0.05180423
70	0x3af17080	0.0018420368
71	0xbd2bb6a0	-0.04192221
72	0xba962980	-0.001145646
73	0x3cbae468	0.02281399
74	0x3c89b9e8	0.01681228
75	0x3ceba450	0.028764874
76	0x3de43960	0.11143756
77	0x39aa6200	0.00032497942
78	0xbdd71f80	-0.10504055
79	0x3d83fe98	0.06445044
80	0xbdbd91ba	-0.09256311
81	0x3ba85760	0.005137369
82	0xbdc13266	-0.09433441
83	0xbde29114	-0.11062828
84	0x3d93ea98	0.072224796
85	0x3cdccb40	0.026952386
86	0x3c945190	0.018105298
87	0x3d69ef04	0.05711271
88	0x3d44c3ac	0.04803817
89	0x3dcc2fcc	0.09970054
90	0xbdbe74d4	-0.09299627
91	0x3cea6ff0	0.02861783
92	0xbd20f318	-0.039294332
93	0x3dce86aa	0.10084279
94	0xbd9fd556	-0.078043625
95	0x3d850ac6	0.064961955
96	0xbda2e5a8	-0.0795396
97	0xbca464e0	-0.020067632
98	0x3de47dca	0.11156805
99	0x3d8eefba	0.06979318
100	0xbd85d012	-0.06533827
101	0xbc64f080	-0.013973355
102	0x3dd2a620	0.10285592
103	0x3df8c4fe	0.12146948
104	0xba862500	-0.0010234416
105	0x3dab9e2c	0.08379778
106	0xbdf78fb2	-0.120879546
107	0xbcc76a20	-0.024342597
108	0x3d9f1190	0.07767022
109	0xbd72bdd8	-0.05926308
110	0xbdec4c8c	-0.11538038
111	0xbde99964	-0.1140621
112	0xbdbf7040	-0.09347582
113	0xbdd10eca	-0.10207899
114	0x3dde7e80	0.10863972
115	0x3cd2bbe0	0.025724351
116	0x3df0ef8a	0.117644385
117	0xbcbcdfe8	-0.023055986
118	0x3d2ef90c	0.04271798
119	0xbcb64398	-0.022249028
120	0x3d22a868	0.039711386
121	0x3c7f5160	0.015583366
122	0xbddb533a	-0.107092336
123	0x3cbcca08	0.023045555
124	0xbdfae7c4	-0.12251237
125	0xbdf1e620	-0.11811471
126	0xbdc126e4	-0.09431246
127	0x3bb88ea0	0.0056322366
128	0xbdb45faa	-0.08807309
129	0xbda9d192	-0.082919255
130	0xbdcc101e	-0.099640116
131	0x3dc990d6	0.098420784
132	0x3d093b58	0.03350386
133	0xbddce872	-0.10786523
134	0xbbda84c0	-0.006668657
135	0xbbf9fd80	-0.0076290965
136	0xbd31dd24	-0.043423787
137	0xbd805424	-0.062660486
138	0x3de74ecc	0.11294326
139	0xbdc23206	-0.094821975
140	0xbb6ba5c0	-0.003595695
141	0xbb367b40	-0.0027844459
142	0x3c8257c0	0.015910983
143	0x3d97c6c6	0.0741096
144	0x3dbbfb52	0.09178795
145	0xbd84b298	-0.064793766
146	0x3dcc6560	0.09980273
147	0xbdd4a572	-0.10383119
148	0xbdc688a2	-0.096940294
149	0x3d800db0	0.06252611
150	0xbda8bb16	-0.08238809
151	0xbdd3d796	-0.10343854
152	0xbdba57fc	-0.09098813
153	0x3d518100	0.051148415
154	0xbdeb029a	-0.114751056
155	0x3dedd27a	0.11612411
156	0x3d38b0cc	0.04509048
157	0x3daeab2a	0.08528741
158	0xbdf04d3a	-0.1173348
159	0xbd862630	-0.065502524
160	0x3c86b248	0.016442433
161	0x3d2acc38	0.041698664
162	0x3d22aa1c	0.03971301
163	0xbce30918	-0.027714297
164	0x3d22c084	0.03973438
165	0x3dcb953e	0.09940575
166	0xbdf23e3e	-0.11828278
167	0xbcf84b60	-0.03030938
168	0x3d6599e4	0.056054965
169	0x3da066f8	0.0783214
170	0x3dbe9dae	0.09307419
171	0xbdabbd56	-0.08385722
172	0x3d15dc6c	0.036587164
173	0x3de6c594	0.11268154
174	0x3cee8240	0.029114842
175	0xbc9868e0	-0.018604696
176	0x3db49e98	0.08819312
177	0x3d287908	0.04113105
178	0xbd36f258	-0.04466471
179	0xbb4d7a80	-0.0031353533
180	0xbdf5128a	-0.11966427
181	0x3de1930a	0.110143736
182	0x3d33552c	0.043782398
183	0x3d58f4b4	0.052967742
184	0x3dd1fa82	0.10252859
185	0xbc84de80	-0.016219378
186	0xbddb479e	-0.10707019
187	0xbc80f220	-0.015740454
188	0xbbd946e0	-0.0066307634
189	0xbdd5b150	-0.1043421
190	0x3d79e7b0	0.06101197
191	0xbd4e5c8c	-0.05038123
192	0xbda7944c	-0.08182582
193	0xbd214674	-0.03937383
194	0xbccedd90	-0.025252134
195	0x3dd71632	0.1050228
196	0x3dda68ca	0.10664518
197	0xbdc07fd8	-0.09399384
198	0x3bd5e380	0.0065273643
199	0xbdb2c4e0	-0.08728957
200	0x3cd3b088	0.025841013
201	0xbddcb3b0	-0.1077646
202	0x3c3d3dc0	0.011550367
203	0xbd4c4804	-0.049873367
204	0x3c896f98	0.016776845
205	0xbdacc37e	-0.08435725
206	0xbba9f600	-0.005186796
207	0x3d9ff5da	0.07810564
208	0xbb7324c0	-0.0037100762
209	0xbc8a3f18	-0.016875789
210	0x3b871820	0.004122749
211	0x3d61e620	0.055151105
212	0x3dbceae4	0.09224489
213	0x3dcbb7e6	0.09947185
214	0x3db4a92e	0.08821331
215	0x3df999d6	0.12187545
216	0xbd5ee60c	-0.05441861
217	0xbdb21edc	-0.08697292
218	0xbcf990c8	-0.030464545
219	0x3db8d8b2	0.09025706
220	0xbd3673bc	-0.044543967
221	0x3cdf0f58	0.027228996
222	0x3dfda7bc	0.123855084
223	0xbc1262e0	-0.008934706
224	0x3d151294	0.03639467
225	0xbd309468	-0.04311028
226	0x3cddd888	0.02708079
227	0xbd061218	-0.0327321
228	0xbdcba4dc	-0.09943554
229	0x3db9b88c	0.09068403
230	0x3cdbf3a8	0.026849583
231	0x3da139a4	0.07872322
232	0xbd614f28	-0.05500713
233	0x3d3daedc	0.046309337
234	0xbd7c4530	-0.06158942
235	0xbc7d9a90	-0.015478745
236	0xbd0482f8	-0.032351464
237	0x3df99094	0.12185779
238	0xbd78ec90	-0.06077248
239	0xbcc1a780	-0.02363944
240	0xbdcdc4f0	-0.100473285
241	0x3aac6c00	0.0013154745
242	0xbd414ed8	-0.047194332
243	0x3c02ce60	0.007983774
244	0x3c66cfd0	0.014087632
245	0xbce510d0	-0.027962118
246	0xbd4d64e0	-0.05014503
247	0xbc0a69d0	-0.008448079
248	0xbde5779e	-0.11204456
249	0x3d3db0f8	0.04631135
250	0xbc0949f0	-0.0083794445
251	0x3df2b22e	0.11850391
252	0x3c66c7b0	0.014085695
253	0xbd32b940	-0.0436337
254	0xbdbd8478	-0.09253782
255	0xbd2c9f70	-0.04214424

lstm.bias_hh_l0 f4 [256]
0	0xbdc65c32	-0.096855536
1	0x3b254580	0.0025218427
2	0xbbadf260	-0.0053084344
3	0x3dec46fe	0.11536978
4	0x3c57d0b0	0.013172314
5	0x3d676b3c	0.05649875
6	0x3d9cccc6	0.07656245
7	0xbde3561a	-0.11100407
8	0xbd9e5ef4	-0.077329546
9	0xbdc9b026	-0.09848051
10	0xbd2c71f8	-0.042100877
11	0xbde74e2e	-0.112942085
12	0xbdfb7c96	-0.12279622
13	0x3d92fb5c	0.07176849
14	0xbce1b8d0	-0.027553946
15	0xbdf468c8	-0.11934048
16	0xbdf8609a	-0.121278
17	0xbd277e54	-0.04089196
18	0xbdc8111e	-0.0976889
19	0xbdb0035f	-0.08594393
20	0x3d4b67f4	0.049659684
21	0x3d11c9c0	0.035592794
22	0xbdd4b85e	-0.10386728
23	0x3d6924ac	0.05691974
24	0x3dbb42ee	0.09143625
25	0xbd92d62c	-0.07169756
26	0xbd0d2718	-0.03446111
27	0x3d8a9586	0.067668006
28	0xbd7de550	-0.061986268
29	0x3d070348	0.032962114
30	0x3da243ee	0.07923113
31	0x3b934060	0.004493758
32	0xbde60404	-0.11231235
33	0xbd9bba98	-0.07603949
34	0xbd9e8d00	-0.07741737
35	0x3d8f4a42	0.069965854
36	0xbdb899da	-0.0901372
37	0x3da34422	0.0797198
38	0x3ca95b30	0.020673364
39	0x3de73b62	0.11290623
40	0x3c7302b0	0.014832184
41	0x3ad43700	0.0016190708
42	0x3d9902ce	0.07471238
43	0xbcf0c820	-0.029392302
44	0xbca30de0	-0.019904077
45	0x3d2a9948	0.041650087
46	0x3de9b77c	0.1141195
47	0xbcd4f888	-0.025997415
48	0xbd42a3c4	-0.04751946
49	0xbdcbf494	-0.09958759
50	0x3d70e240	0.05880952
51	0xbddaf0ce	-0.10690461
52	0xbdc0c476	-0.09412472
53	0xbdaf63da	-0.08563967
54	0xbbb871a0	-0.0056287795
55	0xbd585444	-0.052814737
56	0xbdcb0fd4	-0.09915128
57	0xbc4871d0	-0.012234166
58	0xbdac53ea	-0.08414443
59	0xbde9e234	-0.11420098
60	0x3d3de0d4	0.04635699
61	0xbdd24886	-0.10267739
62	0x3d876760	0.06611514
63	0x3b9efa00	0.0048515797
64	0xbdbbd002	-0.09170534
65	0x3dab0422	0.08350398
66	0xbd10f60c	-0.0353909
67	0x3b87f0a0	0.004148558
68	0x3d55d954	0.052209213
69	0xbd97fcb6	-0.07421248
70	0xbd5e1028	-0.054214627
71	0xbdba0fc6	-0.0908504
72	0xbd5e76bc	-0.054312453
73	0x3d3c8a0c	0.04603009
74	0xbcadfe08	-0.021239296
75	0x3de5bad8	0.11217278
76	0x3b50c500	0.0031855702
77	0xb8f10000	-0.000114917755
78	0xbde7484a	-0.11293085
79	0xbd2d7a08	-0.042352706
80	0xbcd329f8	-0.025776848
81	0x3caec5e0	0.021334589
82	0x3d93d258	0.07217854
83	0x3d974daa	0.0738786
84	0x3df4d5c8	0.11954838
85	0x3df5b968	0.11998254
86	0x3c5e7c50	0.013579443
87	0xbd2e2df0	-0.04252428
88	0x3d6a63e8	0.057224184
89	0x3d7cb1ac	0.06169288
90	0x3cea6900	0.028614521
91	0x3deafa16	0.11473481
92	0xbd80ae9e	-0.062833056
93	0x3df4b2a0	0.119481325
94	0x3d9aa6ce	0.07551347
95	0xbdf97658	-0.121807754
96	0xbd7514d4	-0.059834316
97	0x3dd16fd6	0.10226409
98	0xbc926250	-0.017869145
99	0x3d52d9c8	0.051477224
100	0x3d443e34	0.047910884
101	0x3d19f3c0	0.037585974
102	0x3df6fc9a	0.12059899
103	0x3d990ca0	0.07473111
104	0xbdb02bc0	-0.08602095
105	0x3d2fa4dc	0.04288183
106	0xbd935b44	-0.07195142
107	0xbd239808	-0.03993991
108	0xbdbd3da0	-0.0924027
109	0xbd8223a0	-0.06354451
110	0xbc91cb40	-0.017797112
111	0xbca09650	-0.019602925
112	0xbdcbe8f2	-0.0995654
113	0xbcb435a8	-0.021998242
114	0x3d86c784	0.06581023
115	0xbd730f78	-0.059340924
116	0x3c686f50	0.014186695
117	0x3dacf284	0.08444694
118	0x3bd3aec0	0.006460041
119	0xbd20acc4	-0.039227262
120	0xbd2580e0	-0.040406108
121	0xbdf1653c	-0.11786887
122	0x3da872b6	0.082250044
123	0xbd8a8ecc	-0.067655176
124	0x3df1193e	0.11772393
125	0x3dcc3f1c	0.09972975
126	0xbb27b9c0	-0.0025592893
127	0xbca4c1a8	-0.020111874
128	0x3dd0bb28	0.10191947
129	0x3cafe290	0.021470338
130	0x3da5d3ec	0.080970615
131	0xbb2209c0	-0.002472505
132	0x3d90bc46	0.0706716
133	0xbd9cef78	-0.076628625
134	0xbdb42830	-0.08796728
135	0x3d1df618	0.03856477
136	0x3d714de0	0.058912158
137	0x3dea1f08	0.114317
138	0x3c55c560	0.013047546
139	0x3cc0e150	0.023544937
140	0x3d971f58	0.07379025
141	0x3d6971f4	0.05699344
142	0x3d97c240	0.07410097
143	0xbd86e2a8	-0.065862
144	0xbcbadd80	-0.022810698
145	0x3dff24d6	0.12458198
146	0xbd953ac8	-0.07286602
147	0x3debec7a	0.11519714
148	0x3dc1de96	0.09466283
149	0xbdfd3b9e	-0.12364887
150	0x3dba9622	0.09110667
151	0x3dc26ea2	0.09493758
152	0x3aa98400	0.0012933016
153	0x3d51be40	0.051206827
154	0x3dae81c6	0.08520846
155	0xbdd941a4	-0.10608223
156	0x3df2e53e	0.11860131
157	0x3d9cb626	0.076519296
158	0xbde358aa	-0.11100896
159	0x3ddbf2e2	0.107396856
160	0xbc877880	-0.016536951
161	0xbd8782f6	-0.06616776
162	0x3d2dfdb0	0.042478263
163	0x3d65773c	0.056021914
164	0x3db54b52	0.08852257
165	0xbd493768	-0.049125105
166	0xbdfd0734	-0.123548895
167	0x3da40bce	0.08010064
168	0x3d43c014	0.0477906
169	0x3defcf86	0.11709504
170	0x3d241834	0.040062144
171	0x3a85c280	0.001020506
172	0x3dfcb9e2	0.12340142
173	0x3a9f7080	0.0012164265
174	0x3db2d6f4	0.08732405
175	0xbd1b3e18	-0.037901014
176	0x3d993de0	0.07482505
177	0xbdaea20c	-0.08527002
178	0xbc3194a0	-0.010838658
179	0xbd6d9b30	-0.058009326
180	0xbd4424f4	-0.047886804
181	0xbdf65b4e	-0.12029134
182	0x3b03ac40	0.0020091683
183	0x3a699f00	0.00089119375
184	0xbd465624	-0.048421994
185	0xbd87702c	-0.06613192
186	0x3c8a0278	0.01684688
187	0x3d965a26	0.07341413
188	0x3d5cf50c	0.053944632
189	0xbde69c5a	-0.112602904
190	0xbde8973a	-0.11356969
191	0x3db7d364	0.089758664
192	0xbd943afa	-0.072378114
193	0x3bfbe4c0	0.0076871812
194	0xbcb1ff58	-0.021728203
195	0x3d3279b0	0.04357308
196	0x3d88b86c	0.06675801
197	0xbd97ecfc	-0.07418248
198	0xbdd78b24	-0.10524586
199	0x3db40052	0.087891236
200	0x3df56828	0.11982757
201	0xbcf94d58	-0.030432388
202	0x3bf7c980	0.0075618625
203	0x3c3d4530	0.01155214
204	0xbda90702	-0.0825329
205	0xbd20a184	-0.039216533
206	0xbcfa3928	-0.030544832
207	0xbdc787da	-0.097427085
208	0x3d7dce10	0.061964095
209	0x3dc19b36	0.09453432
210	0xbd468180	-0.048463345
211	0xbc631c70	-0.0138617605
212	0xbd70516c	-0.0586714
213	0x3dc1dd16	0.09465997
214	0xbc0d9a80	-0.008642793
215	0x3dfab894	0.12242237
216	0xbdf4b748	-0.119490206
217	0x3dcc3888	0.0997172
218	0x3c5ce940	0.0134833455
219	0xbd4fe9a4	-0.050759926
220	0xbda8f34a	-0.08249529
221	0xbddf2c8c	-0.108971685
222	0xbd698924	-0.057015553
223	0x3d8498bc	0.06474444
224	0xbdffc978	-0.12489599
225	0xbaef9c80	-0.0018280894
226	0xbc1cfa90	-0.009581223
227	0x3dfd7808	0.1237641
228	0x3ce578c0	0.02801168
229	0x3de7b8e8	0.11314565
230	0x3d4d7fdc	0.050170764
231	0x3de431ea	0.11142333
232	0x3dc08f3c	0.0940232
233	0xbd629a24	-0.05532278
234	0x3cbd6930	0.023121446
235	0x3db4bfaa	0.088256195
236	0xbd54330c	-0.051806495
237	0x3dc5aea0	0.09652448
238	0x3d6f5cfc	0.058438286
239	0x3dd1f5bc	0.10251948
240	0x3c970548	0.018435135
241	0x3c1a4970	0.009416923
242	0xbc8fd018	-0.017555282
243	0xbd5a7294	-0.053331926
244	0xbd0ce45c	-0.034397468
245	0x3d8cd964	0.068774015
246	0xbd48d474	-0.049030736
247	0x3d58bbcc	0.052913472
248	0x3db0b526	0.08628301
249	0x3d811632	0.063030615
250	0x3d9600e4	0.073243886
251	0xbd4ad014	-0.049514845
252	0xbd8403f0	-0.064460635
253	0x3deb6924	0.11494663
254	0xbdea4650	-0.11439192
255	0x3ca6da00	0.020367622

lstm.weight_ih_l1 f4 [256, 64]
0	0xbdc4f9a3	-0.09617927
1	0xbd5ea1dc	-0.05435358
2	0xbdbdb272	-0.09262551
3	0xbce0a668	-0.027423099
4	0x3d470698	0.048590273
5	0xbdaf9a82	-0.08574392
6	0x3d6406b3	0.05567045
7	0xbd6b7a70	-0.057489812
8	0xbda64222	-0.081180826
9	0x3d149b68	0.03628102
10	0xbd795934	-0.060876086
11	0xbdf9a9b4	-0.121905714
12	0x3df22ffc	0.118255585
13	0xbcc87600	-0.02447033
14	0xbc933cb8	-0.017973289
15	0xbd77cfd8	-0.06050095
16	0x3d996310	0.07489598
17	0x3d9f29c4	0.07771638
18	0x3d1b1114	0.037858084
19	0x3d1458d0	0.03621751
20	0xbcdf92f0	-0.027291745
21	0xbdd57c8a	-0.104241446
22	0x3c146b60	0.009058803
23	0x3dfd3bfc	0.12364957
24	0x3d2febfc	0.04294966
25	0x3c8f5918	0.017498538
26	0x3d9340f2	0.07190122
27	0xbb9f9bc0	-0.004870862
28	0x3db04114	0.08606163
29	0xbd483da8	-0.048886925
30	0x3d0404b8	0.032231063
31	0x3db834f4	0.08994475
32	0x3df1d072	0.11807336
33	0x3db2cda0	0.08730626
34	0x3df05e0a	0.117366865
35	0x3dfae0ca	0.12249906
36	0xbde512a7	-0.11185198
37	0xbd0804c1	-0.03320766
38	0xbd1edbb4	-0.038783744
39	0x3bcbbac0	0.0062173307
40	0x3d3d78d8	0.046257824
41	0xbccfb470	-0.025354594
42	0xbb442380	-0.0029928386
43	0x3daef792	0.08543314
44	0xbce9a837	-0.028522594
45	0x3db5a516	0.08869378
46	0xbd0d9488	-0.03456548
47	0x3daa8b72	0.08327378
48	0x3baf6460	0.005352542
49	0x3cd76aa8	0.026295975
50	0x3d5cfd34	0.05395241
51	0x3d52d9d8	0.051477283
52	0x3dbb7944	0.09153989
53	0xbce23f14	-0.027617969
54	0x3dd7e94c	0.10542545
55	0x3da255f4	0.079265505
56	0x3dab67e0	0.08369422
57	0xbaa55e80	-0.0012616664
58	0x3d9114d6	0.07084052
59	0xbd24fc01	-0.040279392
60	0xbdb261f4	-0.08710089
61	0xbda2901e	-0.079376444
62	0x3d86c5b2	0.06580676
63	0xbc9248c8	-0.01785697
64	0x3d635736	0.055503093
65	0xbdc362de	-0.09540342
66	0xbd8f760c	-0.070049375
67	0x3dab55be	0.083659634
68	0x3d6a3020	0.0571748
69	0x3d5a4fe0	0.05329883
70	0xbd63b25a	-0.05559001
71	0x3cb39420	0.021921217
72	0xbc874c58	-0.016515896
73	0x3df034b8	0.11728805
74	0xbba09040	-0.0049000084
75	0x3d16f1c4	0.03685166
76	0xbd98de66	-0.07464294
77	0xbb1fd1c0	-0.0024386495
78	0xbcc95a68	-0.024579242
79	0xbdf4a84c	-0.119461626
80	0xbd9a449c	-0.075326174
81	0x3dd03e98	0.10168189
82	0x3bb456c0	0.0055035055
83	0xbcc07860	-0.0234949
84	0x3d0d7438	0.034534663
85	0xbd385240	-0.045000315
86	0x3bba3de0	0.0056836456
87	0xbd852892	-0.06501879
88	0x3c9417e0	0.01807779
89	0x3dcc7692	0.09983553
90	0x3df9f92e	0.122057304
91	0xbd302e60	-0.043012977
92	0xbc6e35b0	-0.014539167
93	0xbdd1b804	-0.10240176
94	0x3bafcd20	0.005365029
95	0x3cceb8e0	0.02523464
96	0xbd0d98c8	-0.03456953
97	0x3dcf4f82	0.10122587
98	0x3d8df69c	0.06931803
99	0x3d33e84c	0.043922707
100	0xbdf2355c	-0.11826584
101	0xbd9299fe	-0.07158278
102	0xbd1c9550	-0.038228333
103	0x3df7c088	0.12097269
104	0xbd656710	-0.05600649
105	0x3d08f6dc	0.03343855
106	0x3db0be68	0.08630067
107	0xbcad8250	-0.021180302
108	0xbd84be6c	-0.064816326
109	0xbcf80b10	-0.030278713
110	0xbde952ea	-0.11392768
111	0x3d98fdc0	0.07470274
112	0xbd399c58	-0.045315117
113	0x3bba3160	0.0056821555
114	0x3de2b3b0	0.11069429
115	0xbd805fd4	-0.06268278
116	0xbd436980	-0.047708035
117	0x3dc6b2e8	0.097020924
118	0xbdece00a	-0.115661696
119	0xbd2dac27	-0.042400505
120	0x3c684c70	0.01417838
121	0x3dbafef4	0.0913066
122	0x3d37079c	0.04468499
123	0xbd083b30	-0.03325957
124	0x3d92c2b0	0.0716604
125	0x3d6fd1a4	0.05854954
126	0xbd436434	-0.047702983
127	0xbbc5c340	-0.0060352385
128	0x3d58c764	0.05292453
129	0xbd629200	-0.055315018
130	0xbd8ab7e0	-0.067733526
131	0xbce07140	-0.027397752
132	0x3c432c90	0.01191248
133	0x3b836e20	0.0040109307
134	0xbd921c4d	-0.07134304
135	0xbdbf8108	-0.09350783
136	0x3d13527c	0.035967335
137	0xbc891a58	-0.016736194
138	0x3d2cbb2c	0.04217069
139	0x3d10c298	0.03534183
140	0x3d69eba4	0.05710949
141	0x3da1bbd6	0.07897155
142	0x3d099bf4	0.033595994
143	0x3d9e58a4	0.077317506
144	0x3d0d3540	0.03447461
145	0xbddb802e	-0.10717808
146	0x3d0ce1c0	0.03439498
147	0x3d8db586	0.069193885
148	0xbd7ad9e4	-0.061242953
149	0xbda2176a	-0.07914622
150	0xbd9e8132	-0.07739486
151	0xbc7d0fc0	-0.01544565
152	0x3bcc1e60	0.006229207
153	0x3cb12a28	0.021626547
154	0xbca211e8	-0.019783929
155	0xbdfc9a28	-0.123340905
156	0xbdf2c14c	-0.11853275
157	0x3cdb17f0	0.026744813
158	0x3dd9996a	0.106249645
159	0x3db06cce	0.08614503
160	0x3d073f98	0.033019632
161	0x3db76d7e	0.08956431
162	0xbc155410	-0.00911428
163	0x3c6c2a10	0.014414325
164	0xbd36bcc1	-0.044613604
165	0x3d2d5483	0.042316925
166	0x3dc7e4dc	0.09760448
167	0xbce81fd0	-0.028335482
168	0x3de81cca	0.11333616
169	0xbd8ff116	-0.07028405
170	0x3d829f04	0.06377986
171	0xbda9d486	-0.08292489
172	0x3debf985	0.115222014
173	0x3d681bc8	0.05666712
174	0x3ceb9d40	0.028761506
175	0xbb9f3bad	-0.004859409
176	0x3db3c53c	0.08777854
177	0xbdbeaa0c	-0.093097776
178	0xbd1de89c	-0.03855191
179	0x3c7d5da0	0.0154642165
180	0xbdc22a72	-0.09480752
181	0x3d7a2ec0	0.06107974
182	0x3de0583e	0.10954331
183	0x3d4af8b7	0.0495536
184	0xbd89222e	-0.066959724
185	0x3c9cf268	0.019158557
186	0xbdeaf37e	-0.11472224
187	0xbd901138	-0.07034534
188	0xbd94b01e	-0.07260154
189	0x3d0dd450	0.034626305
190	0xbdbcab1c	-0.09212324
191	0xbd125cb8	-0.035732955
192	0xbc880167	-0.016602231
193	0x3c7c0c90	0.0153838545
194	0xbbb5fec0	-0.00555405
195	0x3cdca7e8	0.026935533
196	0xbc296950	-0.01034005
197	0x3dc01c72	0.093804255
198	0xbd87d3c5	-0.06632189
199	0xbdfa4556	-0.12220256
200	0xbd086640	-0.03330064
201	0x3dd8755e	0.10569261
202	0xbdb171b6	-0.08664267
203	0xbd91c756	-0.071180984
204	0xbdc4c212	-0.096073285
205	0x3d0ed01c	0.034866437
206	0x3dd133f2	0.10214986
207	0xbdfd8c96	-0.1238033
208	0x39275c00	0.00015960634
209	0x3d96438c	0.07337102
210	0x3c592780	0.013254046
211	0xbd9b19c6	-0.07573275
212	0xbddbeeba	-0.10738893
213	0x3daa4c9e	0.08315395
214	0xbd9e5968	-0.07731897
215	0x3dd8d670	0.10587776
216	0xbd3a57c4	-0.045493856
217	0x3d048508	0.03235343
218	0xbda28572	-0.07935609
219	0x3de34388	0.11096865
220	0x3ba944a0	0.0051656514
221	0xbd0f5df8	-0.035001725
222	0xbc8e0120	-0.01733452
223	0xbde0c320	-0.10974717
224	0x3b9ac100	0.0047227144
225	0xbdc9057e	-0.09815501
226	0x3d7e311c	0.062058553
227	0x3d49b5ac	0.04924552
228	0x3cee61de	0.029099401
229	0x3d5a4655	0.05328973
230	0xbdfb5dc0	-0.12273741
231	0xbc8d5600	-0.017252922
232	0x3df51922	0.11967684
233	0x3ccc96f0	0.024974316
234	0x3cef1b00	0.02918768
235	0x3ddea4f2	0.108713046
236	0xbd889cc5	-0.066705264
237	0x3d8852ac	0.066563934
238	0xbc326af0	-0.010889754
239	0x3c7de82d	0.01549725
240	0x3dd88878	0.10572904
241	0xbd87f774	-0.06638995
242	0x3d8c4844	0.06849721
243	0x3dce31e8	0.100681126
244	0x3d554e74	0.05207677
245	0x3d9f71d2	0.077853814
246	0x3dd21ac4	0.102590114
247	0xbd179dad	-0.037015606
248	0x3c74b440	0.014935553
249	0x3c35c120	0.011093408
250	0x3d094374	0.033511594
251	0xbdb3c935	-0.087786116
252	0xbdf89cf0	-0.121393085
253	0xbd892dbc	-0.06698176
254	0xbda1c554	-0.078989655
255	0x3ddcbdc2	0.10778381

lstm.weight_hh_l1 f4 [256, 64]
0	0xbc978431	-0.018495651
1	0x3e0777c1	0.13229276
2	0x3e1a0219	0.15039863
3	0xbda88c7b	-0.082299195
4	0x3da1803d	0.07885788
5	0xbd8539b1	-0.065051444
6	0x3c8dc907	0.017307771
7	0x3df660e8	0.12030202
8	0xbd942322	-0.072332636
9	0x3d8a2507	0.06745344
10	0x3b195ee4	0.0023402506
11	0xbce6fbfc	-0.028196327
12	0xbdf8745e	-0.1213157
13	0x3da2365d	0.07920525
14	0xbd068d8d	-0.032849837
15	0x3c6cebf7	0.014460555
16	0x3bcaffae	0.00619503
17	0xbca54d87	-0.02017857
18	0xbd655aa1	-0.055994634
19	0xbc6d7390	-0.014492884
20	0x3e14883e	0.14505097
21	0x3ce24856	0.027622383
22	0xbd2c734d	-0.042102147
23	0x3cf4f068	0.02989979
24	0x3c0ef9eb	0.008726577
25	0x3df80f79	0.12112326
26	0x3dabc9d0	0.08388102
27	0x3d0fe4f9	0.035130475
28	0xbe028fe9	-0.1275021
29	0xbd119c35	-0.03554936
30	0xbd9f2872	-0.07771386
31	0x3d98d6a4	0.074628145
32	0xbdb942e3	-0.09045961
33	0x3dfc998d	0.12333975
34	0xbdb4b874	-0.08824244
35	0x3de844e7	0.11341267
36	0x3c87066f	0.01648256
37	0x3d888913	0.0666677
38	0xbc0716cc	-0.008245181
39	0xbd9cc12a	-0.076540306
40	0x3da4890e	0.080339536
41	0xbd7c69e0	-0.061624408
42	0xbce36dbd	-0.027762288
43	0xbdfcc9de	-0.123431906
44	0x3c83e693	0.016101157
45	0xbd622aa2	-0.05521644
46	0x3cf5a7ba	0.029987205
47	0x3d9835f9	0.074321695
48	0x3df4dc9e	0.11956142
49	0xbd42991b	-0.047509294
50	0x3c88293a	0.01662122
51	0x3d565100	0.05232334
52	0x3de021e3	0.109439634
53	0xbd020130	-0.031739414
54	0xbb933095	-0.0044918754
55	0xbc18a719	-0.009317183
56	0xbdc1e80c	-0.094680876
57	0xbdc0cc74	-0.09413996
58	0x3d7438db	0.059624534
59	0x3c8ebc53	0.017423784
60	0x3d60be7a	0.054869153
61	0x3d3fecd3	0.046856713
62	0xbdc7984f	-0.097458474
63	0xbd2bb186	-0.041917346
64	0x3d5a30bc	0.053269133
65	0xbced53dc	-0.028970651
66	0x3d97151e	0.07377075
67	0x3cd98daa	0.026556809
68	0x3d002c76	0.0312924
69	0xbbdf08cc	-0.0068064686
70	0xbdac2c17	-0.08406847
71	0x3d7ac789	0.061225448
72	0x3b3dfb19	0.0028988777
73	0xbca6bbbd	-0.020353192
74	0xbd4a18a1	-0.049339894
75	0x3e08432a	0.13306871
76	0xbdb2677d	-0.08711145
77	0xbccabd4f	-0.024748472
78	0xbd876e9d	-0.06612895
79	0xbc0477da	-0.008085215
80	0x3d66536d	0.056231905
81	0xbdb7e343	-0.089788936
82	0x3d85df77	0.06536763
83	0xbe1a7c74	-0.15086538
84	0xbd95fc29	-0.07323486
85	0x3dcb75e3	0.099345945
86	0x3e052a4f	0.1300442
87	0x3bdbb435	0.006704832
88	0x3bff4aa5	0.0077908807
89	0xbc11777b	-0.008878584
90	0xbd9d7093	-0.076874875
91	0xbd816fb8	-0.06320137
92	0xbcdfab4b	-0.027303359
93	0xbe0f8640	-0.14016056
94	0x3bd79ec7	0.006580207
95	0xbc9dff03	-0.019286638
96	0x3d525610	0.051351607
97	0xbd672b83	-0.05643798
98	0x3d458b8e	0.048228793
99	0x3cd60383	0.026124721
100	0x3d5fb2eb	0.05461399
101	0xbdbc6867	-0.09199601
102	0x3deff94b	0.11717471
103	0x3df13e77	0.11779492
104	0x3db220ab	0.08697637
105	0x3dd5bb83	0.10436156
106	0x3d38be2a	0.04510323
107	0x3cc32188	0.0238197
108	0xbd9780d5	-0.0739762
109	0x3d21585d	0.03939091
110	0x3cc8cbaf	0.024511186
111	0x3d6f22db	0.05838285
112	0x3de644a8	0.11243564
113	0xbdbec54f	-0.093149774
114	0x3dbd27ae	0.09236084
115	0x3c82c520	0.015963137
116	0xbccc270f	-0.024920968
117	0x3d2cf342	0.042224176
118	0xbd968789	-0.0735007
119	0x3d6c1158	0.057633728
120	0x3e18a89a	0.14908066
121	0xbb83840a	-0.004013543
122	0x3cc79bb0	0.02436623
123	0xbc2563d2	-0.0100946
124	0x3e1b49bc	0.15164846
125	0xbc8ce92a	-0.017201025
126	0x372ba1a7	1.0230032e-05
127	0x3babc6e3	0.005242215
128	0x3dae1739	0.08500523
129	0xbb13677f	-0.0022492108
130	0x3d3857d2	0.045005627
131	0x3d87441d	0.066047885
132	0x3ded2ed4	0.115811974
133	0xbbf5772a	-0.007491012
134	0x3d2d9804	0.0423813
135	0xbac6fe9b	-0.001518208
136	0xbd078a72	-0.033091016
137	0x3c4feee9	0.012691238
138	0x3d4b80f2	0.04968352
139	0xbd35121e	-0.04420673
140	0xbdb0fe3b	-0.086422406
141	0x3dc7883d	0.09742782
142	0x3dabdb3f	0.08391427
143	0xbdd33a17	-0.10313814
144	0x3de7c846	0.11317496
145	0x3d1cfac9	0.038325105
146	0x3dc8655a	0.09784956
147	0x3cd18e65	0.025580594
148	0xbda2578b	-0.07926854
149	0x3dfe3207	0.12411886
150	0x3d3ecf10	0.04658419
151	0xbc442449	-0.011971542
152	0xbdd7becf	-0.10534441
153	0xbdbfbc3f	-0.09362077
154	0x3c71e155	0.014763196
155	0x3da4167e	0.080121025
156	0xbd8f69bb	-0.07002588
157	0xbdaa76d3	-0.08323445
158	0xbd2b6ce8	-0.041851908
159	0xbc4b674f	-0.012414767
160	0xbd9a899a	-0.07545777
161	0x3df3d5d0	0.11906016
162	0xbbe7b8a0	-0.0070715696
163	0x3da3accb	0.07991942
164	0xbd82ef6d	-0.06393323
165	0x3c089177	0.008335463
166	0xbdc52979	-0.09627051
167	0xbd86dc09	-0.06584937
168	0x3d0fb354	0.03508313
169	0x3c16c062	0.009201141
170	0x3c8e108a	0.01734187
171	0x3dc37c29	0.09545166
172	0xbd934860	-0.07191539
173	0x3dbf3d5b	0.093378745
174	0xbc52047a	-0.01281845
175	0xbc26721c	-0.010159042
176	0x3c1b9669	0.00949631
177	0xbd8be31f	-0.06830429
178	0x3d6f8a73	0.058481645
179	0x3d31d50f	0.04341608
180	0x3dca374a	0.09873827
181	0xbda29805	-0.07939152
182	0x3cab8338	0.020936593
183	0x3bea7fc2	0.007156343
184	0x3c0806da	0.008302415
185	0x3da86c8b	0.08223828
186	0x3c3b4b82	0.011431577
187	0xbc70dc00	-0.01470089
188	0x3e17f61a	0.14839974
189	0x3dff648a	0.12470348
190	0x3ba8c42b	0.005150338
191	0xbd246630	-0.040136516
192	0x3da4c221	0.0804484
193	0x3b8a5551	0.0042215963
194	0xbdc232a9	-0.09482319
195	0xbdf3951c	-0.11893675
196	0x3e03460f	0.12819694
197	0xbd8c4f7a	-0.068510965
198	0xbc06f625	-0.008237396
199	0xbd83c66a	-0.06434329
200	0x3d57908f	0.052628096
201	0xbd864932	-0.0655693
202	0xbdccfefa	-0.100095704
203	0xbd7c9c03	-0.061672222
204	0x3d64bb65	0.055842776
205	0xbd99772b	-0.074934326
206	0xbb58a59f	-0.0033057702
207	0xbcb0f04d	-0.02159896
208	0xbd858186	-0.06518845
209	0xbe033682	-0.12813762
210	0x3e1fd7b5	0.1560963
211	0x3cefc55a	0.02926891
212	0x3d27e942	0.040993936
213	0x3df5cc8f	0.12001907
214	0x3bf98940	0.0076152384
215	0xbcf7d8a7	-0.030254675
216	0x3d5ca682	0.05386973
217	0x3e0da19c	0.1383118
218	0x3d725b3b	0.059169035
219	0x3d96041e	0.07325004
220	0x3d0c4258	0.034242958
221	0xbdc4009b	-0.09570428
222	0x3c3b1ad2	0.011419969
223	0xbb43122e	-0.0029765475
224	0xbd94880b	-0.07252511
225	0x3dddcae3	0.10829713
226	0xbe243372	-0.1603525
227	0xbd8f945f	-0.070107214
228	0xbd5d26f2	-0.05399222
229	0x3d4659d7	0.04842552
230	0xbd053dc6	-0.032529615
231	0x3e1e62c9	0.15467371
232	0xbc51dd21	-0.012809069
233	0xbd7f9fd7	-0.062408295
234	0x3d79f721	0.061026696
235	0x3b33dafb	0.0027443755
236	0xbcd5423b	-0.026032558
237	0xbd472285	-0.048616905
238	0x3d5fb83d	0.054619063
239	0x3d26fda4	0.040769234
240	0x3d3324bf	0.043736216
241	0x3d63488c	0.055489108
242	0x3e2385da	0.15969029
243	0x3dfc2675	0.123120226
244	0xbcf6fe27	-0.030150486
245	0x3d69ebaf	0.05710953
246	0xbbaa3e0a	-0.005195384
247	0x3b8e47b2	0.004342043
248	0x3c805074	0.015663363
249	0xbd1e75ca	-0.03868655
250	0xbdb35767	-0.08756905
251	0x3d5cd601	0.053915028
252	0x3e01686f	0.12637495
253	0x3cf46bc9	0.029836552
254	0xbce95fb9	-0.028488027
255	0x3d384948	0.04499176

lstm.bias_ih_l1 f4 [256]
0	0x3c617b9b	0.01376238
1	0x3d13da18	0.036096662
2	0x3d824979	0.0636167
3	0xbd889a5f	-0.06670069
4	0xbdae9eec	-0.08526406
5	0x3dd52e2a	0.10409196
6	0x3cad7fa5	0.02117903
7	0x3de32487	0.110909514
8	0xbd254029	-0.04034439
9	0x3d9e48ec	0.077287525
10	0x3e056246	0.1302577
11	0x3e01689b	0.1263756
12	0xbd648a4c	-0.055795953
13	0x3d916bc4	0.07100633
14	0x3df07531	0.117411025
15	0xbdb6d129	-0.08926613
16	0x3d93234b	0.07184466
17	0x3a85bded	0.0010203697
18	0xbd4701e1	-0.048585776
19	0x3dde8591	0.108653195
20	0x3ac67756	0.0015141766
21	0xbc632d02	-0.013865711
22	0x3d845bbb	0.06462809
23	0xbce96a68	-0.028493121
24	0x3dbf54ea	0.09342368
25	0x3d98a24d	0.074528314
26	0x3dd6513c	0.10464713
27	0x3c6d98ac	0.014501732
28	0xbdba410c	-0.09094438
29	0x3dcf864d	0.10133038
30	0x3e099e7d	0.13439365
31	0xbcec971e	-0.028880652
32	0x3c64c95b	0.0139640225
33	0x3de256bb	0.11051699
34	0x3d62bc29	0.055355225
35	0x3c8b302d	0.016990745
36	0x3db71e7f	0.089413635
37	0x3d6a389e	0.0571829
38	0x3de940bc	0.113893
39	0x3dd43efc	0.10363576
40	0x3d0b731a	0.034045316
41	0xbca176f3	-0.01971004
42	0xbdb483bc	-0.08814189
43	0xbdbedd11	-0.09319509
44	0x3d5dfcdd	0.054196227
45	0xbcee7295	-0.029107371
46	0x3d7fd9c3	0.062463533
47	0x3e04380f	0.1291201
48	0xbc1e9a66	-0.009680366
49	0xbd4e87b4	-0.050422385
50	0x3d60f968	0.054925352
51	0x3debd49e	0.11515163
52	0xbd8570c1	-0.06515647
53	0x3e12e5af	0.1434543
54	0x3dff166d	0.12455449
55	0x3d0fc9a2	0.0351044
56	0x3dbce251	0.09222854
57	0xbd21ff8d	-0.039550353
58	0x3d7fee10	0.062482893
59	0x3dadd278	0.08487409
60	0xbccee90a	-0.025257606
61	0xbd3fd6f3	-0.04683585
62	0x3de8d1ae	0.11368118
63	0x3c49bdbb	0.012313302
64	0x3e034913	0.12820844
65	0x3d82e347	0.06391006
66	0xbda35613	-0.07975402
67	0x3d9fcb61	0.07802463
68	0x3de9c82e	0.11415134
69	0x3dd5c7ab	0.10438474
70	0x3dd61069	0.10452349
71	0xbd9137f4	-0.0709075
72	0xbd285d07	-0.041104343
73	0x3d9c6093	0.076356076
74	0xbcd1fe40	-0.025633931
75	0x3db13d07	0.08654218
76	0x3e007e79	0.12548245
77	0x3dbaedbf	0.09127378
78	0xbd2f3842	-0.04277826
79	0x3e09c242	0.1345301
80	0x3ddaa850	0.10676634
81	0xbc7b3c75	-0.015334238
82	0x3e2267ee	0.15859959
83	0x3d27b387	0.040942695
84	0xbd852822	-0.06501795
85	0xbd7aae0c	-0.06120114
86	0xbd00ca4f	-0.031442937
87	0xbd1266cd	-0.03574257
88	0x3c749741	0.01492864
89	0x3d2dd9cc	0.042444035
90	0x3d9280d1	0.07153476
91	0x3d12065f	0.035650607
92	0x3db7906a	0.08963092
93	0xbc0aa1e3	-0.008461448
94	0xbd16a927	-0.03678241
95	0x3c054800	0.008134842
96	0xbda1c38c	-0.07898626
97	0x3c9ce919	0.019154118
98	0x3e172570	0.14760375
99	0x3dd61f72	0.104552165
100	0x3dfea458	0.1243369
101	0x3ddcbcfa	0.10778232
102	0x3d187e31	0.03722972
103	0x3d9238cb	0.07139739
104	0x3c6296a5	0.013829862
105	0x3ca8ec82	0.020620588
106	0x3e1f659b	0.15566103
107	0x3d7232c9	0.059130464
108	0x3d91e6e1	0.07124115
109	0x3dc3cd7d	0.09560678
110	0x3e0ac59a	0.13551942
111	0xbdb60361	-0.08887363
112	0xbc530c9d	-0.012881425
113	0x3e0f2e37	0.13982473
114	0x3cdd204e	0.026992943
115	0xbd44e128	-0.04806629
116	0xbde18d28	-0.110132515
117	0xbbd2ad77	-0.00642937
118	0x3dde1bf2	0.10845174
119	0x3de8ae9e	0.113614306
120	0x3dd6057c	0.10450265
121	0x3ccb79bd	0.024838323
122	0x3e1aa431	0.15101697
123	0x3d882144	0.0664697
124	0x3d6c009f	0.05761778
125	0x3d7a5d19	0.06112394
126	0x3dcd7fdf	0.10034155
127	0xbc2f3e67	-0.01069603
128	0xbd24feef	-0.040282186
129	0x3de327f1	0.110916026
130	0xbae8eaa3	-0.0017770123
131	0xbde2a624	-0.11066845
132	0xbdad69f9	-0.08467478
133	0xbd9d42e3	-0.07678773
134	0xbd0d20aa	-0.03445498
135	0xbd18a0e1	-0.0372628
136	0xbc9bf5e5	-0.01903815
137	0x3d8d3259	0.06894369
138	0x3cd75049	0.0262834
139	0xbc2469ed	-0.01003502
140	0xbdc31132	-0.09524764
141	0xbe1e29ef	-0.15445684
142	0x3e0547db	0.13015692
143	0x3df2c72f	0.118543975
144	0x3c3c88f1	0.011507259
145	0xbe12153e	-0.14265916
146	0x3d684ffa	0.056716897
147	0xbd75c587	-0.06000283
148	0x3d73ef05	0.05955412
149	0x3df31e37	0.118709974
150	0x3dd2fdd2	0.10302319
151	0x3e05c62d	0.1306388
152	0xbe1b8a35	-0.1518944
153	0xbdbd25e8	-0.09235746
154	0xbd177c55	-0.036983807
155	0x3de7915c	0.11307022
156	0x3c4908cf	0.012270167
157	0xbe00a9c7	-0.12564765
158	0xbe02fd17	-0.12791859
159	0xbd8f4112	-0.06994833
160	0xbd54adf4	-0.051923707
161	0x3dd14c69	0.10219652
162	0xbd5af0f9	-0.053452466
163	0xba699539	-0.00089104805
164	0xbd6e9fec	-0.058257982
165	0x3df43e5b	0.11925956
166	0x3d594800	0.05304718
167	0x3e1d3532	0.15352324
168	0x3ba29ba1	0.0049624
169	0xbd4743c6	-0.04864862
170	0x3d59d45d	0.05318104
171	0xbd9071b5	-0.07052938
172	0xbdd020d0	-0.101625085
173	0xbd6ee465	-0.058323283
174	0x3b8cda37	0.004298474
175	0xbca09e2b	-0.01960667
176	0xbbd9bd91	-0.0066449125
177	0xbe0d8d55	-0.13823445
178	0x3d4a5cb0	0.0494048
179	0x3ce7aa2a	0.028279383
180	0x3df3fc96	0.11913411
181	0xbd86c6ca	-0.06580885
182	0x3d60641c	0.05478297
183	0x3cf607aa	0.030032951
184	0x3ddf2ed0	0.10897601
185	0x3ca9364c	0.020655774
186	0x3d9593e9	0.07303602
187	0xbe0b1bad	-0.13584776
188	0x3d870559	0.06592817
189	0x3cc64282	0.024201635
190	0x3db4fbdf	0.08837103
191	0x3d48d011	0.049026553
192	0x3be4b932	0.006980085
193	0x3d023318	0.031787008
194	0xbd734978	-0.059396237
195	0xbd2da10a	-0.042389907
196	0x3db8bc3e	0.09020279
197	0xbcc4f5f4	-0.02404306
198	0x3e0219b2	0.12705114
199	0x3db2d221	0.08731485
200	0x3da3a6c8	0.079907954
201	0x3c9e9b8a	0.019361276
202	0xbd73a716	-0.059485517
203	0x3e13659e	0.14394233
204	0xbd02e10b	-0.0319529
205	0x3dc0101f	0.09378075
206	0x3ce3703d	0.02776348
207	0x3d9b5bc5	0.07585863
208	0x3d13a89a	0.036049463
209	0x3d64b3ac	0.05583541
210	0xbd269dc9	-0.04067782
211	0x3dd41e5c	0.10357353
212	0x3c81a160	0.01582402
213	0xbd060d80	-0.03272772
214	0xbcc7bd71	-0.024382325
215	0xbd073f12	-0.033019133
216	0xbd55eb94	-0.052226618
217	0x3cd78067	0.026306344
218	0xbd25352c	-0.04033391
219	0x3d3a7979	0.045526
220	0x3dd6974c	0.10478076
221	0xbd496995	-0.049172956
222	0x3988d93f	0.00026101802
223	0x3d8a8393	0.06763377
224	0x3ddb2444	0.107002765
225	0x3d4271aa	0.04747168
226	0xbd935952	-0.07194771
227	0xbcff69f0	-0.031178445
228	0xbd73c7c3	-0.05951668
229	0x3cde5162	0.027138416
230	0x3de15a1a	0.11003514
231	0x3e04a4fd	0.12953563
232	0x3df3595e	0.1188228
233	0x3df6eab2	0.12056483
234	0x3e1fe490	0.15614533
235	0xbd97a408	-0.07404333
236	0xbd12fffa	-0.03588865
237	0xbb2cdaa0	-0.0026375428
238	0x39809f02	0.00024532533
239	0x3d8edb4d	0.06975422
240	0x3ba505d1	0.0050360938
241	0xbd8d5d4b	-0.0690256
242	0xbd788e5f	-0.06068265
243	0x3c7e634b	0.015526603
244	0xbdcdd6ae	-0.100507125
245	0x3d907b37	0.07054751
246	0xbd7be8e2	-0.06150139
247	0x3dad8d82	0.08474256
248	0x3d05618b	0.032563727
249	0x3e06cbea	0.13163725
250	0xbc24fbee	-0.01006983
251	0x3d012b71	0.03153557
252	0xbd13c0b8	-0.036072463
253	0xbd3b95f0	-0.04579729
254	0xbd7c1f61	-0.061553363
255	0x3d8e1608	0.06937796
